chatbot_data.pth (torch, 11663 bytes, 8 tensors)

layer1.weight f4 [16, 85]
00000000: 7e85 0c3e 7783 e7bd 328f 5a3e 7bac 0e3e
00000010: f518 003f 2bca 8f3d acbd 3dbe 76e1 dcbd
00000020: 5c41 7b3d 3f86 0ebe eabd 29be 2927 803e
00000030: 14d4 88bd 81e5 983e 819f 963d 3115 1bbe
00000040: 163a 813e a288 78bc 13b2 3d3e 3c3f 5e3d
00000050: fbd1 45be 2817 273d c005 303e 4f53 0a3e
00000060: b75f 7abe 1655 503e 9ad4 44be 54c5 f33d
00000070: 5c96 8f3e 566e 40bd 37c7 df3e a8a4 b1be
00000080: 2054 62bd 636f 82be bc26 1cbe d537 38bd
00000090: a157 95bd a0e6 15be eb3e 393e 365f 543e
000000a0: 38a4 5b3e 697d f03d 800c 893c b6e8 3d3e
000000b0: 187b 683e 09ae fdbd 5f7a f83d 66a7 f13c
000000c0: 4734 dfbd 427d f7bd 6e80 f03e d98e 623e
000000d0: 5bae 57be 054e d43e 22f1 a83e a774 9f3d
000000e0: c3e3 7d3e b3cd 623e cf5f 1e3e 3f18 18be
000000f0: 4c03 bb3c b07c 0abc 9a89 753e d248 a2bd
00000100: e644 af3e 909e bb3e 2923 cebd 88b5 9cbe
00000110: 2924 8dbe 3e3c b03e 31c4 b53e 38e7 ffbc
00000120: a224 15be 6c2d f6bd f39a e83d 2ec9 523e
00000130: 87c3 793e 4718 4a3e aeb0 79bc e573 dfbd
00000140: a277 83be 11c1 fa3c 961b 98bd 2ba2 063e
00000150: aaeb a43d cf49 6ebd bce4 5f3e c6d9 c03d
00000160: 2e36 17be abfa 5bbe b73d 3b3d bb15 313e
00000170: 732c aa3e 4056 1a3e 56fb 223e 4f8f d63d
00000180: 7df0 58be 279b 143e 827f 223d 926c d0bd
00000190: c337 973e d7ed bcbc 6fe9 753e d6c3 883e
000001a0: fb0d 6a3e 9218 34be 83c9 493e 39b3 4bbe
000001b0: 8abc e13c 19ee ca3e 47cd 863e ed6d 633e
000001c0: 9b16 833e 04d0 2ebd a6de 813e 53c7 39be
000001d0: 4ca4 a63e a211 af3e c691 483e d939 493e
000001e0: 6c59 903e 7236 d43d 2320 483e 4b5d 383e
000001f0: 972a 3f3e 3eb2 253e 8767 7c3e 4f48 0d3e
00000200: 532b 0b3e dc48 48bd c409 6f3e 4731 0bbe
00000210: d57b 343e f415 ae3e 26fc 313e aab4 fd3d
00000220: da4f bc3c 0800 073f 868e 563e 1dd5 72be
00000230: 0eb7 4cbd 0d0d 713e 4a1b 19bd f0d9 a23d
00000240: 815a f83e aae6 663e c9bb adbc b83d 6bbd
00000250: b61e 293d f538 493e 05f2 6a3e a2df c2bd
00000260: cd4d b43e b5df b13e 25e7 c13e 462b 4e3e
00000270: cacc 1d3c 3881 0c3d 5c01 ee3d 0f4d 893e
00000280: 6f90 a33e cfec babd 7991 843d 6a44 433d
00000290: 4980 463d 8589 593e c7a5 0a3e 31f6 0e3e
000002a0: aeda 013e 34b2 e43d 96b4 bebd f1c0 0bbc
000002b0: 5910 80be 8887 28be 44ad 80bb 611a 473e
000002c0: 8cd7 01be 15ad 9a3e 5e03 9c3e ea39 cfbd
000002d0: b683 903e ba3e d6bc 7e42 8c3e 74a3 9a3e
000002e0: 7c96 03be 5e09 773e c0c8 69bd 6b90 9cbd
000002f0: 85a5 36be 37b5 91be fe42 413e d1f8 56bd
00000300: 744c 2c3e b8b2 70bd 2302 c63e f362 9e3d
00000310: f4b6 003e c589 d73d 2290 ddbd f00c f3bc
00000320: dac0 ba3d d447 5e3e a9d5 f3bd 8430 253e
00000330: 28ae 363e 37d6 19bc 806c 48ba 7ebd a5bd
00000340: 27ec 3bbe 0eca 963d 3d68 213e 750e 6c3e
00000350: 9313 e8bd be15 bc3c e6c9 80bd cbd5 96bd
00000360: a367 143e e7a3 b73e a45e 533e 4b5a fabd
00000370: c73b bfbe 0354 4abe 5ce1 623e 8961 9abe
00000380: ad11 c4bd 6c5e 9c3d 1774 44be e69a 82be
00000390: 62a6 37be 17a3 9b3e 4618 033d 877b 6b3e
000003a0: 2ae1 b6be d949 723e d7e4 09be f3fb 0cbe
000003b0: 9e62 463e a12b c2bd 3156 5cbe 2aa6 87bd
000003c0: d2fa 52bd f947 6b3e a1f1 fd3d 12c0 803e
000003d0: 5bfb 983e def4 9cbe 1899 b9bc ebf4 e33d
000003e0: 14f4 aabd 715d b63e a587 6c3e ac78 3abd
000003f0: ee49 283e d6c2 19bd 8564 943e 4648 813e
0.13722798 -0.11304372 0.21343687 0.13932984 0.5003808 0.07020982 -0.18529385 -0.10785191
0.06134163 -0.13918398 -0.16576353 0.25029877 -0.06681076 0.29862598 0.07354642 -0.15144803
0.2523963 -0.015169295 0.18524961 0.054259524 -0.19318382 0.040793568 0.17189693 0.13508342
-0.24450575 0.20344958 -0.19221726 0.11902872 0.28044403 -0.046980225 0.43706676 -0.34695935
-0.05525601 -0.25475606 -0.15249151 -0.04497512 -0.072921045 -0.14638758 0.18090408 0.20739445
0.21449363 0.1174267 0.016729593 0.18545803 0.22703207 -0.1238671 0.121327154 0.029498767
-0.10898643 -0.12084438 0.46972984 0.22124805 -0.21062605 0.41465774 0.3299647 0.077859215
0.24793915 0.2214878 0.15466236 -0.14852999 0.02282872 -0.008452579 0.23978272 -0.079240456
0.34232253 0.3664441 -0.100653 -0.30607247 -0.2756665 0.3442096 0.35501245 -0.031238183
-0.14564756 -0.12020382 0.11357679 0.20584556 0.24390994 0.19735824 -0.015239878 -0.10910777
-0.2567721 0.03060964 -0.074271366 0.131478 0.08052762 -0.058175858 0.21864599 0.09416537
-0.14766762 -0.21482341 0.045713153 0.17293446 0.33237037 0.15071964 0.1591619 0.10476553
-0.21185489 0.14512311 0.039672382 -0.10176958 0.2953473 -0.02306263 0.24014829 0.2671191
0.22856896 -0.17587498 0.19705777 -0.19892587 0.027555723 0.3963478 0.2632849 0.22209902
0.25603184 -0.042678848 0.2536518 -0.18142442 0.32547224 0.3419314 0.19586858 0.19650973
0.28193223 0.10361947 0.19543509 0.18004338 0.1866859 0.16181275 0.24648868 0.13797115
0.13590746 -0.04889761 0.23343569 -0.13593017 0.17625363 0.34001124 0.17381343 0.123879746
0.022987295 0.5273442 0.20952806 -0.23714109 -0.049979262 0.23540135 -0.03737954 0.079517245
0.4850655 0.22548929 -0.021207707 -0.057431906 0.041289054 0.19650634 0.22943886 -0.09515311
0.35215607 0.34740987 0.37871662 0.20133695 0.009631345 0.03430292 0.11621353 0.26816604
0.31946132 -0.09127199 0.06473059 0.047672667 0.048462186 0.21243866 0.13539802 0.13961102
0.12681076 0.11166802 -0.09311788 -0.008529888 -0.25012472 -0.16457951 -0.003926905 0.19443657
-0.12679881 0.30210176 0.3047132 -0.10118468 0.28225487 -0.026152957 0.2739448 0.3020283
-0.12850374 0.24124667 -0.057076216 -0.07644733 -0.17836578 -0.28458568 0.18873212 -0.052483384
0.1682604 -0.05876419 0.38673505 0.07733717 0.12569791 0.10524324 -0.10818507 -0.029669255
0.09118815 0.21707088 -0.11905987 0.16131788 0.17839873 -0.009389452 -0.00076455623 -0.080927834
-0.18351804 0.073627576 0.1576242 0.2305239 -0.113318585 0.022959586 -0.06288509 -0.073649965
0.1449266 0.35867235 0.20641571 -0.12224253 -0.37350294 -0.1975861 0.2215628 -0.30152538
-0.09573684 0.07635197 -0.1918491 -0.25508803 -0.17934564 0.30397865 0.03200557 0.2299634
-0.35718662 0.23660983 -0.13466202 -0.13767986 0.19373557 -0.09480978 -0.21517254 -0.0662349
-0.051508732 0.22976674 0.12399603 0.25146538 0.2987927 -0.3065557 -0.022656009 0.11130699
-0.083473355 0.35618165 0.2309862 -0.045525238 0.16434452 -0.037539326 0.2898294 0.25250453

layer1.bias f4 [16]
00000000: fcb6 9c3e 00f4 ea3e 02d8 7e3e 85ec 6e3e
00000010: 7d5e a23e e7ff 8f3e 615e 9d3e 9cca d13e
00000020: f940 853e 4e00 ae3e 7d24 303e 5900 863e
00000030: 55cf f53e 3f3c ed3e cf99 c83e 6615 8e3e
0.30608356 0.45889282 0.24887088 0.23332413 0.31712714 0.28124925 0.30736068 0.4097489
0.26026133 0.33984607 0.17201419 0.2617214 0.48009744 0.46335027 0.39179847 0.277507

layer2.weight f4 [16, 16]
00000000: 7a15 323e 702f 2abd 02fe 183e de15 84be
00000010: 34d2 0ebf 7928 053f a43c d2be c7b6 063e
00000020: 0fe5 003f e349 4f3f afab 013f 5a45 24be
00000030: d1ed cb3e 3bf4 313f b2b1 4abe c820 f1be
00000040: d5c1 aa3e cd80 1e3e 5c0c c03e 65b5 bc3e
00000050: 54a7 983d 76ed c03e bc64 a53e 2d38 3d3f
00000060: 1d14 033f 0228 8dbe 4ae5 22be e904 f0be
00000070: 91d0 d0be 423b 343f 5f4a e0be d55d 303f
00000080: cf08 933d 02ad cb3e c844 003f 4a6c 16be
00000090: 10c4 063f 9caf a43e 3209 8a3e a2b6 293e
000000a0: 7fe7 8ebd 7e03 04bf c3d9 ebbe b4e1 a1bd
000000b0: 6dd2 683d c3d7 ac3c ddcc 1bbf 744b 2b3f
000000c0: a5a1 f1be e3cf 9c3e 11c5 f33e 653a 02bf
000000d0: b98f 3a3f 2754 c43e ba97 ea3e 5aa7 383f
000000e0: 7c57 5abd cbf5 c6be 4820 afbd a77c babe
000000f0: 511a 973d aa6d 803e 9d93 72be cbf9 113f
00000100: 4baf b83e 112d 3d3e f0c2 93be ac32 503f
00000110: 4a93 063f 9ab9 71be b80d dd3e c9d8 7c3e
00000120: 06a9 cf3e c9de 88be 652e 18bf 1449 d73e
00000130: e2a7 4a3e dd7d 60be 5e28 013f 0fd2 183f
00000140: 4001 3e3f 5b1e d23e 18b2 9ebd 923f 1f3f
00000150: 4a5f 46bf 39bf 4cbd df77 c03e c065 a4be
00000160: 49ea 9c3e d4cf d93e 0b06 313f 0975 103f
00000170: 649e 073f 98ff 34be 34a8 803e cd4a 06bf
00000180: 64f6 283f fc4d 81be f635 41bd 8583 823f
00000190: 0cc7 d5be 9be1 f83e a2e5 433f 526b d93e
000001a0: 4388 103f bc7f af3d 94b3 8bbd 8178 f43e
000001b0: a701 90be d526 8e3e 486d 213c 836e 963e
000001c0: 3141 fcbe e1dc 223f 54df b83e 3ca6 3dbf
000001d0: acb1 0b3f 2559 7f3e 3d03 d2be c55e b43e
000001e0: 03a8 99bc 7a4e 413f c604 473f 74c5 bdbd
000001f0: 5bab fe3e af59 d23e 1232 0c3f 4eaa 82be
00000200: 3232 4a3c a8fd ed3e 2bed 1e3f dfdc c0be
00000210: 775c 3b3e 31da e03e 96da f53e bd21 0e3f
00000220: f1cd 883e 70d1 9ebe dca6 63be 0ff3 b3be
00000230: 1a17 0cbe e2f4 8dbd b555 40bf e210 353f
00000240: f238 043f eaf2 dbbe 455e 203f aea1 4c3f
00000250: 2fc5 bdbe ced0 423f 9b7e ec3e 566a 473f
00000260: c4aa 623f 45df bc3a 12f5 143f f9ed bebe
00000270: 0684 8cbe a9f5 2c3f 40e6 febc c67f e33c
00000280: 21f8 cbbc 1a94 523f 95e2 c7be f73e dd3d
00000290: fc70 153f b028 edbe a70e ae3e 8f0e 62bc
000002a0: 5879 03bf ea30 fe3e b51c 94be e195 293f
000002b0: a012 3b3f 7f9c c0bd f1b7 0e3f b64b e83e
000002c0: 89e0 213f a1a6 873d 541e 52be d05c 963e
000002d0: c4fc 2bbf fd1e e13e fc25 3f3e 62e0 993d
000002e0: 2cab be3e 87e2 3e3f 25c1 063f 065d 1c3f
000002f0: 1ece f93e fc8e 193d 77fc a33e b1be cdbe
00000300: c4f6 113f 20e5 9c3e 7279 1abd 68c4 093f
00000310: fa2b c63e 044e 243c 9a80 3f3f 8e34 ff3c
00000320: 5706 723e bab0 42bf 4edb 14bf d2a2 d63e
00000330: b477 19be 6b8a 243d b9b7 85bd 489a 403f
00000340: 8636 0abf 82c0 303f 490f aebd 82ee 1cbf
00000350: 8eb0 333f ed36 cfbe 8759 a83d e204 f73c
00000360: e80d f0be 0bf7 003e 5508 78bd 6916 d63c
00000370: 670f 1e3f 82e2 953e a190 c83e 0207 043f
00000380: a35f 083d c2e4 313f 3ba7 f13e ed7e f3be
00000390: ec3d 4c3f e845 8d3d 4d3e f53d c185 933e
000003a0: 5df5 1e3c 5cfd e7be e8fb 7fbe 6f30 95be
000003b0: 5944 c0bc 8081 203e c3cb 8fbe d6b0 203f
000003c0: dd64 483f 6ec1 833e 50b3 a3be 9faa 4a3f
000003d0: 0705 fcbd b8bd cb3e 41f7 cf3e f2b3 f7bd
000003e0: a6ad b93e 7442 143f 3250 633d c259 433f
000003f0: f689 463e 824c 543e 33b0 963e 8dc2 663e
0.17391005 -0.041549146 0.14940646 -0.25797933 -0.55789495 0.5201488 -0.4106189 0.13155662
0.50349516 0.8097212 0.50652593 -0.1604208 0.39829877 0.6951329 -0.19794348 -0.47095323
0.33351007 0.15478821 0.3750943 0.36857143 0.0745379 0.37681168 0.32303417 0.7391384
0.51202565 -0.27569586 -0.1590778 -0.46878746 -0.40784124 0.7040292 -0.4380674 0.68893176
0.071794145 0.39780432 0.5010495 -0.14689746 0.5264292 0.3216523 0.2696014 0.16573575
-0.06977748 -0.5156783 -0.46064577 -0.079043776 0.056841303 0.021098977 -0.6085947 0.6691201
-0.47193637 0.30627355 0.47611287 -0.50870353 0.72875553 0.38345453 0.45818883 0.7213036
-0.053306088 -0.388594 -0.08551079 -0.36423227 0.07378066 0.25083667 -0.23689122 0.5702178
0.36071238 0.18474223 -0.28859663 0.8132732 0.52568495 -0.23605958 0.4317453 0.24692072
0.40558642 -0.26732472 -0.5944579 0.42047942 0.19790605 -0.21923013 0.5045222 0.59695524
0.7422066 0.41038784 -0.077488124 0.62206376 -0.7748915 -0.04998705 0.37591454 -0.3210888
0.30647495 0.42541373 0.69149846 0.5642858 0.5297606 -0.17675626 0.2512833 -0.52457887
0.6600096 -0.2525481 -0.0471706 1.0196387 -0.41753423 0.48609623 0.76522267 0.4246469
0.5645792 0.08569285 -0.06821361 0.47748187 -0.2812626 0.27764 0.009852715 0.2938119
-0.49268487 0.63618284 0.36107886 -0.7408178 0.5456798 0.2493635 -0.41018096 0.35228553
-0.018756872 0.7551037 0.7774166 -0.09266177 0.4974011 0.41084048 0.547639 -0.25520557
0.012341069 0.46482587 0.6208064 -0.3766851 0.18296991 0.43916467 0.4801833 0.5552023
0.2671962 -0.31019163 -0.2223162 -0.35146376 -0.13680688 -0.06931473 -0.7513078 0.70728886
0.5164939 -0.42958766 0.62643844 0.79934204 -0.37064502 0.7609986 0.46190342 0.7789663
0.8854182 0.0014409801 0.5818645 -0.37290934 -0.27444476 0.6756235 -0.031115651 0.027770888
-0.02489859 0.82257235 -0.39040056 0.10803025 0.58375525 -0.46320105 0.33995554 -0.013797416
-0.5135703 0.49646693 -0.28928152 0.6624432 0.73075294 -0.09404849 0.5574942 0.45370263
0.6323324 0.06623579 -0.20519382 0.29367685 -0.67182565 0.43968955 0.18666834 0.07513501
0.3723997 0.74564403 0.52638465 0.6107944 0.48790067 0.037489876 0.32028553 -0.40184548
0.5701716 0.30643559 -0.037713476 0.5381532 0.38705426 0.010028366 0.74805605 0.03115299
0.23635231 -0.76050913 -0.5814713 0.41921097 -0.1498707 0.04017107 -0.06529183 0.75235415
-0.53989446 0.69043744 -0.08499009 -0.61301434 0.70191276 -0.40471593 0.08220201 0.030153695
-0.4688561 0.1259424 -0.06055482 0.026133733 0.6174225 0.29274374 0.39172843 0.51573193
0.03329433 0.6948968 0.471979 -0.47557774 0.79781985 0.06898099 0.119747736 0.28812984
0.009702054 -0.45310485 -0.24998438 -0.29138514 -0.02347009 0.156744 -0.28085145 0.6276983
0.78278905 0.25733513 -0.31972742 0.791666 -0.123056464 0.3979318 0.40618327 -0.12094869
0.36265296 0.579139 0.055496402 0.76308835 0.19388565 0.2073231 0.29431304 0.22535153

layer2.bias f4 [16]
00000000: bc5e a13e a59a b23e ceb6 833e 8338 e63e
00000010: d075 c83e 5292 ac3e fb47 a93e 0a7c e73e
00000020: 084d c5bd 1a6d 853e 435b d93e 6913 8fbd
00000030: 09e1 ad3d be93 873e 9fa3 2b3e 7413 873e
0.3151759 0.3488361 0.25725406 0.4496499 0.39152384 0.33705384 0.3306273 0.45211822
-0.09633833 0.260598 0.4245244 -0.06986124 0.08490188 0.26479906 0.16761635 0.2638203

layer3.weight f4 [16, 16]
00000000: aeaf 2f3f 389a febd 8533 4d3e 43a9 a43e
00000010: e376 d7be e99a 963e f218 93be d44f e63e
00000020: b80d 963e 6d21 13be f359 693e 3f47 af3e
00000030: 1c07 85be 2cd0 833e bbfb df3d 6d67 863e
00000040: 5baf 263e 14f0 183f fd99 bf3d 482a 0d3f
00000050: 1fdc e83d 5c43 afbe 1c0f 2d3e 1473 4d3e
00000060: 5806 743d a3bf e63e aee7 0f3e cb0c d5be
00000070: 5ca3 6e3e c011 2fbe 2a16 153f 130e f63d
00000080: b1c0 9f3e 11e0 98be 85df 93b9 e223 bc3c
00000090: b4ab d13e 8b12 063e 769b c53d e257 273f
000000a0: 7322 aabe 7dd8 78be d539 083f 07b7 da3e
000000b0: 679b 96be 5a15 1d3f e6b3 e33d fd64 c53e
000000c0: 9bde d3be a7e4 d43e 0b2c f53e 6fd6 dd3e
000000d0: a9de d03e 3a0c b0be 7a4a 803e 1d86 8abe
000000e0: 911b e63e edd0 c13d 13af c63d a98f e7be
000000f0: d66a 113f aea1 213e 5f6e 373f 7146 43be
00000100: 6f73 b2be 77a5 08bd 5120 a83e db08 82be
00000110: 1f38 283e 238f a03e d23a a13e 76a3 b6be
00000120: b843 a93d 89cc 99bd a22c 573e fea5 9b3e
00000130: 6852 1b3f 2dfb 94be 9cc3 d83d 55f8 093f
00000140: 6ed3 5d3e e038 033f 58c2 b63e a991 0a3f
00000150: 43bb 5d3e c060 cabd 2c77 e13e d8ee dcbd
00000160: dd28 063f c7ea 333f 2e01 ddbe 9d89 1c3c
00000170: e687 9b3e 5862 b7be 5d90 d63e 9bdb 123e
00000180: f6ca 67be b0c5 4b3d 1020 00be e0d7 c73d
00000190: 8895 5ebd 102b 7abd 40d0 dd3c 3861 ca3d
000001a0: 48ba 04be 4033 f3bc 5027 b3bc bed4 5dbe
000001b0: b863 41bd 7829 20bd 3043 8fbd 98fd 6f3e
000001c0: e88e 4c3f 0299 803e 0083 473d 4dd4 c83d
000001d0: 061d 05be 9659 82be 16e3 d53e c60c a13e
000001e0: 4fe6 e03e 05c9 0e3f 31b5 26bf 50bd a93e
000001f0: b03d efbd 9134 b1be 04be 453e dd94 b73d
00000200: 3db0 c0be 2fe7 3a3e 6597 ee3d 572c a73e
00000210: 479f c63e ec90 5bbe 417d c03e 0c9f cdbe
00000220: 7c38 9b3e e59c 8f3e dede fcbd 56c3 cb3d
00000230: c83f 203f 7c75 013e eac2 a93e 8983 b63e
00000240: fa6b 9ebe 4c77 a3bd 5804 6fbe 7f1c bcbe
00000250: 597d 1b3f 1373 493f a322 933e 4756 00bf
00000260: 38ab c13d b6c9 bf3d 11eb 913e b794 0d3f
00000270: 7d73 eb3e 8a00 83be 62ec 96be 80bc 0a3f
00000280: 7487 debd 3d5b 3f3e f42d 583e 025e 273e
00000290: b9c3 69be c24b 833c b025 563d 557f 5cbe
000002a0: 1640 b9bd f54a 20be 760c 2dbe 6aaa 68be
000002b0: 25c2 89bd a236 6d3e 5fe4 33be 60d6 673d
000002c0: 7c78 f63e 6083 efbe 6c50 86be b187 40be
000002d0: 277d 3fbd a79d 023e 8121 a8be dab9 0d3f
000002e0: 0b99 96be 1d38 04bf d2d0 e53e 54c1 ae3e
000002f0: b7f5 ffbe 424b 0b3f 657e c1bd f815 bc3d
00000300: 1bb0 a8be 1301 203e 2afc a23e 0adf ca3e
00000310: 6f68 d03e 135d b9bd 042f a1bd a8a9 403e
00000320: c0e4 bb3e 5ad1 97be 6e6b bd3e b2c3 92be
00000330: 13f6 c23e 4935 293f 9883 ff3e 6259 4e3e
00000340: 7ded 273f edff 853e 588d 89be f931 32be
00000350: f494 9bbe 6f40 273f 6239 a23e 3ac9 8f3e
00000360: 465e 6ebe f0a7 f53e d00d 9dbe c2f9 2e3f
00000370: 1706 70be 19b9 efbe 3e62 f7be 1df8 003f
00000380: d546 34be f3c8 a53c 0429 9abe 3f0b 75be
00000390: 0d95 373f 3a92 c33e 8022 ab3e 99fd b8bd
000003a0: 07a4 15bf 870a c23d a8c0 4c3f 5dc8 dd3d
000003b0: d3ff 763e 2b19 543e 2454 00bf 359d 0e3f
000003c0: 8fa4 11be 24fc 393e 0d2d c53e 1c87 e93e
000003d0: 3705 d5bd 19d6 71be 446e 8abe cdd7 ef3e
000003e0: 7056 1e3f c4c9 563e 93c4 da3e fdc7 86be
000003f0: dff9 3c3e 426d db3e 6026 173f e642 7abe
0.6862744 -0.12431759 0.20039184 0.32160386 -0.4208289 0.29415062 -0.2872997 0.4498278
0.29307342 -0.1436822 0.22788219 0.34234044 -0.25981987 0.2574476 0.10936686 0.26250783
0.1627783 0.5974133 0.09355543 0.5514264 0.1137011 -0.3423108 0.16900295 0.2006343
0.059576362 0.45068082 0.14053223 -0.41611323 0.23304504 -0.17096615 0.58236945 0.12014403
0.312017 -0.2985845 -0.0002820456 0.022966329 0.40951312 0.13093011 0.096487924 0.65368474
-0.33229408 -0.24301334 0.53213245 0.42717764 -0.29415438 0.61360705 0.11118297 0.3855361
-0.41380772 0.41580698 0.47885165 0.43327662 0.40794876 -0.34384328 0.2505682 -0.27055445
0.44942906 0.094636776 0.097013615 -0.45226792 0.56803644 0.15784332 0.7165279 -0.1906984
-0.34853694 -0.033360925 0.32837155 -0.2539738 0.16427658 0.31359205 0.3149019 -0.35671586
0.082648695 -0.07509715 0.2101312 0.3040008 0.60672617 -0.29097882 0.105841845 0.5389455
0.21662685 0.5125866 0.35695148 0.5412851 0.21653466 -0.09881735 0.44036233 -0.10787743
0.524061 0.70280117 -0.43164963 0.009554294 0.3037712 -0.35817218 0.41907015 0.14341585
-0.22636017 0.049749076 -0.12512231 0.09757972 -0.054341823 -0.061076224 0.02707684 0.09881824
-0.12961686 -0.029687524 -0.021869332 -0.21663186 -0.04721424 -0.039102048 -0.06995237 0.23436582
0.7990556 0.25116736 0.048708916 0.09806118 -0.12999353 -0.25458974 0.41774815 0.31455058
0.43925712 0.5577548 -0.65120226 0.33152246 -0.11681688 -0.34610417 0.19310766 0.0896394
-0.3763446 0.18252252 0.1164997 0.32651016 0.38793394 -0.21442002 0.3759556 -0.40160406
0.30316532 0.2804939 -0.12347196 0.09949367 0.6259732 0.12642473 0.3315652 0.35647228
-0.30941755 -0.079817384 -0.23341501 -0.3674049 0.6073814 0.78691214 0.28737363 -0.5013165
0.094564855 0.09364645 0.28499654 0.55305046 0.45986548 -0.2558635 -0.2947722 0.5419388
-0.108656794 0.18687148 0.2111128 0.16344455 -0.22828569 0.016027335 0.052282035 -0.21532948
-0.090454265 -0.15653594 -0.16899285 -0.22721258 -0.06726483 0.23165372 -0.17567585 0.05660093
0.48138797 -0.4677992 -0.26233232 -0.18801762 -0.046750214 0.12755452 -0.3283806 0.5536171
-0.29413638 -0.5164812 0.4488588 0.34131873 -0.49992153 0.5441171 -0.09447936 0.09183878
-0.32946858 0.1562541 0.3183301 0.3962329 0.40704677 -0.090509556 -0.07870296 0.18814719
0.3669796 -0.2965191 0.36996025 -0.2866493 0.38078365 0.6609693 0.49905086 0.20151284
0.65596753 0.26171818 -0.2686565 -0.17401876 -0.3038708 0.6533269 0.31684405 0.2808321
-0.2327815 0.4797969 -0.306746 0.6834985 -0.23439823 -0.46820906 -0.4831714 0.5037859
-0.17605145 0.020237422 -0.30109417 -0.23930071 0.7171181 0.381975 0.3342476 -0.09032745
-0.5845341 0.09474664 0.7998147 0.10829232 0.24121027 0.20712726 -0.5012839 0.5570863
-0.1422293 0.1816259 0.38510934 0.45610893 -0.10401385 -0.23616828 -0.2703725 0.4684433
0.61850643 0.20975405 0.427281 -0.26324454 0.18454693 0.42856795 0.5904293 -0.24439582

layer3.bias f4 [16]
00000000: 0831 adbd 054e ed3d eed3 7d3e b7bd 5abc
00000010: e4b4 b7bc 68b9 3e3e c268 5abe 045d e0bd
00000020: 3d5e 143e 7d8f 9d3e 7bd5 2ebe dfac bd3d
00000030: 3c1d 43ba 3b2e 1b3e ad9c ee3e 2227 953e
-0.084566176 0.11587147 0.24787876 -0.013350896 -0.022425123 0.18625414 -0.21329024 -0.10955241
0.14489074 0.30773535 -0.17073624 0.09261488 -0.0007443016 0.15154354 0.4660391 0.29131418

layer4.weight f4 [8, 16]
00000000: cddd 703d 7ead dbbb 3e7f d3bd feed a9be
00000010: 6167 14bf 7cfe b13e 2a03 1a3e 3326 c33e
00000020: 9051 babd 9a48 35bf 2b4e 88be e087 e7be
00000030: db10 dcbe 6fd4 083f c7f1 3abf d29c b73d
00000040: d244 2b3e 645c 67bf 0a0a 943e 44f0 62be
00000050: dabd 5a3e 1aef 1abf c0d4 f9bc 7e31 abbe
00000060: 2513 cebe 4b56 b13d b8d5 c53d 02cc a53d
00000070: 171d 03bf a6f2 983e f50a 0c3e 0502 a2be
00000080: 9745 b4be 5d03 3e3e 95d3 d6bd bc96 17bf
00000090: f1ef 55be 8269 fc3d a4b7 5e3e a327 833e
000000a0: 949c fbbd b435 883d 39c8 193e 3aef 16bf
000000b0: 4fc3 9fbf 7273 d53e 6a0e cc3e 6c02 ffbe
000000c0: 0a3c b0be 0670 823e 09bd 2d3e 723d 613e
000000d0: 45f4 cebd 7537 1ebb 30b8 0b3d facb 3cbf
000000e0: aecc f33c 116f 0abe 7f90 fc3d 752a 49bf
000000f0: 3a1f de3e 46e5 3bbf 0e6b 7e3e 47eb 343e
00000100: 9f13 92be fc1d 173e 74fb 29bf 576a 973e
00000110: 854d 78bd b7a3 923e 3c8b 1a3e 84e8 6d3e
00000120: 9f0d 843d 4d40 47bf 5020 98bd 01a5 a2be
00000130: 9f3e 2d3e 172a cbbe 640e 41bf 09cf b43e
00000140: defc 4abf 0370 05bf 4210 88be d3ac 46be
00000150: d6f4 e83e 4a21 3c3c 4090 19bd 23db 0cbf
00000160: 6b23 c53c a1c7 c63e 5d70 6b3e bee2 abbe
00000170: ddcd 5ebd f4fb 13be d4da c93e e8de c4be
00000180: 8119 98bf e46f 8a3d f799 03bf a3d7 343e
00000190: f328 313e 9a4c 7f3e cc51 fa3d 72fb 1a3e
000001a0: c491 743e 6dec 5a3e 4aad 8abd e7dd aabe
000001b0: 07de 95be 343a 55be 4674 83be ff4e 22be
000001c0: 38ce ce3c 980c d7be 628f d83e 9c3b f6be
000001d0: b624 39bf 0efe 0ebf 60b1 533c 0662 d0be
000001e0: ba10 0cbf 9451 a3bd 286b 88be 4e1a bb3e
000001f0: 10e8 c43e 8e4c 05bf e3c8 583e 2d67 c23e
0.058805276 -0.0067040315 -0.10327004 -0.33189386 -0.57970244 0.3476447 0.1504027 0.3811508
-0.09097588 -0.70813906 -0.26622137 -0.45220852 -0.4298161 0.5344915 -0.7302517 0.08965458
0.16725472 -0.9037535 0.2891391 -0.22161967 0.21361485 -0.6052109 -0.030496955 -0.33436197
-0.4024898 0.08659037 0.09659904 0.08095552 -0.5121626 0.29872626 0.13676055 -0.31642166
-0.35209343 0.1855597 -0.10489575 -0.5921438 -0.20892312 0.123248115 0.21749741 0.25616178
-0.12285724 0.06650868 0.15017785 -0.5895878 -1.2481478 0.4168964 0.39854747 -0.49806535
-0.34420806 0.25476092 0.16966642 0.21996096 -0.101051845 -0.0024141942 0.0341112 -0.73748744
0.029760685 -0.13518931 0.12332248 -0.7858041 0.433832 -0.7339672 0.24845526 0.17667876
-0.28530595 0.14757532 -0.6639931 0.29573318 -0.060620803 0.2864053 0.15092176 0.23233229
0.064479105 -0.7783249 -0.07428038 -0.31766513 0.1691842 -0.3968055 -0.75412583 0.35314205
-0.79292095 -0.5212404 -0.26574904 -0.19401865 0.45499295 0.011482546 -0.037491083 -0.55021876
0.02406474 0.3882418 0.22992082 -0.33571428 -0.054395545 -0.14451581 0.39424765 -0.38451314
-1.1882783 0.06759623 -0.51406807 0.17660384 0.17300777 0.24931565 0.12222633 0.15134981
0.2388373 0.21379252 -0.067713335 -0.33372423 -0.29270956 -0.20822984 -0.25674647 -0.15850447
0.025244817 -0.42001796 0.42296892 -0.48092353 -0.7232164 -0.55856407 0.012920707 -0.40699786
-0.5471302 -0.07974544 -0.26644254 0.36543506 0.384583 -0.5206994 0.21170382 0.37969342

layer4.bias f4 [8]
00000000: dacc 8a3b e47c 07bd c970 4a3e a3f5 c33d
00000010: bd39 453e ccc0 403e 1242 68bd db24 713e
0.004235846 -0.03307809 0.19769587 0.09568336 0.19260307 0.18823546 -0.056703635 0.23549215
